{"format": "layers-model", "generatedBy": "keras v2.9.0", "convertedBy": "TensorFlow.js Converter v3.19.0", "modelTopology": {"keras_version": "2.9.0", "backend": "tensorflow", "model_config": {"class_name": "Sequential", "config": {"name": "sequential_30", "layers": [{"class_name": "InputLayer", "config": {"batch_input_shape": [null, 768], "dtype": "float32", "sparse": false, "ragged": false, "name": "dense_150_input"}}, {"class_name": "Dense", "config": {"name": "dense_150", "trainable": true, "batch_input_shape": [null, 768], "dtype": "float32", "units": 12, "activation": "softsign", "use_bias": true, "kernel_initializer": {"class_name": "GlorotUniform", "config": {"seed": null}}, "bias_initializer": {"class_name": "Zeros", "config": {}}, "kernel_regularizer": null, "bias_regularizer": null, "activity_regularizer": null, "kernel_constraint": null, "bias_constraint": null}}, {"class_name": "Dense", "config": {"name": "dense_151", "trainable": true, "dtype": "float32", "units": 17, "activation": "softsign", "use_bias": true, "kernel_initializer": {"class_name": "GlorotUniform", "config": {"seed": null}}, "bias_initializer": {"class_name": "Zeros", "config": {}}, "kernel_regularizer": null, "bias_regularizer": null, "activity_regularizer": null, "kernel_constraint": null, "bias_constraint": null}}, {"class_name": "Dense", "config": {"name": "dense_152", "trainable": true, "dtype": "float32", "units": 17, "activation": "softsign", "use_bias": true, "kernel_initializer": {"class_name": "GlorotUniform", "config": {"seed": null}}, "bias_initializer": {"class_name": "Zeros", "config": {}}, "kernel_regularizer": null, "bias_regularizer": null, "activity_regularizer": null, "kernel_constraint": null, "bias_constraint": null}}, {"class_name": "Dense", "config": {"name": "dense_153", "trainable": true, "dtype": "float32", "units": 17, "activation": "softsign", "use_bias": true, "kernel_initializer": {"class_name": "GlorotUniform", "config": {"seed": null}}, "bias_initializer": {"class_name": "Zeros", "config": {}}, "kernel_regularizer": null, "bias_regularizer": null, "activity_regularizer": null, "kernel_constraint": null, "bias_constraint": null}}, {"class_name": "Dense", "config": {"name": "dense_154", "trainable": true, "dtype": "float32", "units": 72, "activation": "softmax", "use_bias": true, "kernel_initializer": {"class_name": "GlorotUniform", "config": {"seed": null}}, "bias_initializer": {"class_name": "Zeros", "config": {}}, "kernel_regularizer": null, "bias_regularizer": null, "activity_regularizer": null, "kernel_constraint": null, "bias_constraint": null}}]}}, "training_config": {"loss": "categorical_crossentropy", "metrics": [[{"class_name": "MeanMetricWrapper", "config": {"name": "accuracy", "dtype": "float32", "fn": "categorical_accuracy"}}]], "weighted_metrics": null, "loss_weights": null, "optimizer_config": {"class_name": "Adagrad", "config": {"name": "Adagrad", "learning_rate": 0.0010000000474974513, "decay": 0.0, "initial_accumulator_value": 0.1, "epsilon": 1e-07}}}}, "weightsManifest": [{"paths": ["group1-shard1of1.bin"], "weights": [{"name": "dense_150/kernel", "shape": [768, 12], "dtype": "float32"}, {"name": "dense_150/bias", "shape": [12], "dtype": "float32"}, {"name": "dense_151/kernel", "shape": [12, 17], "dtype": "float32"}, {"name": "dense_151/bias", "shape": [17], "dtype": "float32"}, {"name": "dense_152/kernel", "shape": [17, 17], "dtype": "float32"}, {"name": "dense_152/bias", "shape": [17], "dtype": "float32"}, {"name": "dense_153/kernel", "shape": [17, 17], "dtype": "float32"}, {"name": "dense_153/bias", "shape": [17], "dtype": "float32"}, {"name": "dense_154/kernel", "shape": [17, 72], "dtype": "float32"}, {"name": "dense_154/bias", "shape": [72], "dtype": "float32"}]}]}