{"format": "layers-model", "generatedBy": "keras v2.9.0", "convertedBy": "TensorFlow.js Converter v3.19.0", "modelTopology": {"keras_version": "2.9.0", "backend": "tensorflow", "model_config": {"class_name": "Sequential", "config": {"name": "sequential_31", "layers": [{"class_name": "InputLayer", "config": {"batch_input_shape": [null, 768], "dtype": "float32", "sparse": false, "ragged": false, "name": "dense_155_input"}}, {"class_name": "Dense", "config": {"name": "dense_155", "trainable": true, "batch_input_shape": [null, 768], "dtype": "float32", "units": 12, "activation": "softsign", "use_bias": true, "kernel_initializer": {"class_name": "GlorotUniform", "config": {"seed": null}}, "bias_initializer": {"class_name": "Zeros", "config": {}}, "kernel_regularizer": null, "bias_regularizer": null, "activity_regularizer": null, "kernel_constraint": null, "bias_constraint": null}}, {"class_name": "Dense", "config": {"name": "dense_156", "trainable": true, "dtype": "float32", "units": 17, "activation": "softsign", "use_bias": true, "kernel_initializer": {"class_name": "GlorotUniform", "config": {"seed": null}}, "bias_initializer": {"class_name": "Zeros", "config": {}}, "kernel_regularizer": null, "bias_regularizer": null, "activity_regularizer": null, "kernel_constraint": null, "bias_constraint": null}}, {"class_name": "Dense", "config": {"name": "dense_157", "trainable": true, "dtype": "float32", "units": 17, "activation": "softsign", "use_bias": true, "kernel_initializer": {"class_name": "GlorotUniform", "config": {"seed": null}}, "bias_initializer": {"class_name": "Zeros", "config": {}}, "kernel_regularizer": null, "bias_regularizer": null, "activity_regularizer": null, "kernel_constraint": null, "bias_constraint": null}}, {"class_name": "Dense", "config": {"name": "dense_158", "trainable": true, "dtype": "float32", "units": 17, "activation": "softsign", "use_bias": true, "kernel_initializer": {"class_name": "GlorotUniform", "config": {"seed": null}}, "bias_initializer": {"class_name": "Zeros", "config": {}}, "kernel_regularizer": null, "bias_regularizer": null, "activity_regularizer": null, "kernel_constraint": null, "bias_constraint": null}}, {"class_name": "Dense", "config": {"name": "dense_159", "trainable": true, "dtype": "float32", "units": 72, "activation": "softmax", "use_bias": true, "kernel_initializer": {"class_name": "GlorotUniform", "config": {"seed": null}}, "bias_initializer": {"class_name": "Zeros", "config": {}}, "kernel_regularizer": null, "bias_regularizer": null, "activity_regularizer": null, "kernel_constraint": null, "bias_constraint": null}}]}}, "training_config": {"loss": "categorical_crossentropy", "metrics": [[{"class_name": "MeanMetricWrapper", "config": {"name": "accuracy", "dtype": "float32", "fn": "categorical_accuracy"}}]], "weighted_metrics": null, "loss_weights": null, "optimizer_config": {"class_name": "Adadelta", "config": {"name": "Adadelta", "learning_rate": 0.0010000000474974513, "decay": 0.0, "rho": 0.949999988079071, "epsilon": 1e-07}}}}, "weightsManifest": [{"paths": ["group1-shard1of1.bin"], "weights": [{"name": "dense_155/kernel", "shape": [768, 12], "dtype": "float32"}, {"name": "dense_155/bias", "shape": [12], "dtype": "float32"}, {"name": "dense_156/kernel", "shape": [12, 17], "dtype": "float32"}, {"name": "dense_156/bias", "shape": [17], "dtype": "float32"}, {"name": "dense_157/kernel", "shape": [17, 17], "dtype": "float32"}, {"name": "dense_157/bias", "shape": [17], "dtype": "float32"}, {"name": "dense_158/kernel", "shape": [17, 17], "dtype": "float32"}, {"name": "dense_158/bias", "shape": [17], "dtype": "float32"}, {"name": "dense_159/kernel", "shape": [17, 72], "dtype": "float32"}, {"name": "dense_159/bias", "shape": [72], "dtype": "float32"}]}]}