{"format": "layers-model", "generatedBy": "keras v2.9.0", "convertedBy": "TensorFlow.js Converter v3.19.0", "modelTopology": {"keras_version": "2.9.0", "backend": "tensorflow", "model_config": {"class_name": "Sequential", "config": {"name": "sequential_63", "layers": [{"class_name": "InputLayer", "config": {"batch_input_shape": [null, 768], "dtype": "float32", "sparse": false, "ragged": false, "name": "dense_315_input"}}, {"class_name": "Dense", "config": {"name": "dense_315", "trainable": true, "batch_input_shape": [null, 768], "dtype": "float32", "units": 12, "activation": "swish", "use_bias": true, "kernel_initializer": {"class_name": "GlorotUniform", "config": {"seed": null}}, "bias_initializer": {"class_name": "Zeros", "config": {}}, "kernel_regularizer": null, "bias_regularizer": null, "activity_regularizer": null, "kernel_constraint": null, "bias_constraint": null}}, {"class_name": "Dense", "config": {"name": "dense_316", "trainable": true, "dtype": "float32", "units": 17, "activation": "swish", "use_bias": true, "kernel_initializer": {"class_name": "GlorotUniform", "config": {"seed": null}}, "bias_initializer": {"class_name": "Zeros", "config": {}}, "kernel_regularizer": null, "bias_regularizer": null, "activity_regularizer": null, "kernel_constraint": null, "bias_constraint": null}}, {"class_name": "Dense", "config": {"name": "dense_317", "trainable": true, "dtype": "float32", "units": 17, "activation": "swish", "use_bias": true, "kernel_initializer": {"class_name": "GlorotUniform", "config": {"seed": null}}, "bias_initializer": {"class_name": "Zeros", "config": {}}, "kernel_regularizer": null, "bias_regularizer": null, "activity_regularizer": null, "kernel_constraint": null, "bias_constraint": null}}, {"class_name": "Dense", "config": {"name": "dense_318", "trainable": true, "dtype": "float32", "units": 17, "activation": "swish", "use_bias": true, "kernel_initializer": {"class_name": "GlorotUniform", "config": {"seed": null}}, "bias_initializer": {"class_name": "Zeros", "config": {}}, "kernel_regularizer": null, "bias_regularizer": null, "activity_regularizer": null, "kernel_constraint": null, "bias_constraint": null}}, {"class_name": "Dense", "config": {"name": "dense_319", "trainable": true, "dtype": "float32", "units": 72, "activation": "softmax", "use_bias": true, "kernel_initializer": {"class_name": "GlorotUniform", "config": {"seed": null}}, "bias_initializer": {"class_name": "Zeros", "config": {}}, "kernel_regularizer": null, "bias_regularizer": null, "activity_regularizer": null, "kernel_constraint": null, "bias_constraint": null}}]}}, "training_config": {"loss": "categorical_crossentropy", "metrics": [[{"class_name": "MeanMetricWrapper", "config": {"name": "accuracy", "dtype": "float32", "fn": "categorical_accuracy"}}]], "weighted_metrics": null, "loss_weights": null, "optimizer_config": {"class_name": "SGD", "config": {"name": "SGD", "learning_rate": 0.009999999776482582, "decay": 0.0, "momentum": 0.0, "nesterov": false}}}}, "weightsManifest": [{"paths": ["group1-shard1of1.bin"], "weights": [{"name": "dense_315/kernel", "shape": [768, 12], "dtype": "float32"}, {"name": "dense_315/bias", "shape": [12], "dtype": "float32"}, {"name": "dense_316/kernel", "shape": [12, 17], "dtype": "float32"}, {"name": "dense_316/bias", "shape": [17], "dtype": "float32"}, {"name": "dense_317/kernel", "shape": [17, 17], "dtype": "float32"}, {"name": "dense_317/bias", "shape": [17], "dtype": "float32"}, {"name": "dense_318/kernel", "shape": [17, 17], "dtype": "float32"}, {"name": "dense_318/bias", "shape": [17], "dtype": "float32"}, {"name": "dense_319/kernel", "shape": [17, 72], "dtype": "float32"}, {"name": "dense_319/bias", "shape": [72], "dtype": "float32"}]}]}