{"format": "layers-model", "generatedBy": "keras v2.9.0", "convertedBy": "TensorFlow.js Converter v3.19.0", "modelTopology": {"keras_version": "2.9.0", "backend": "tensorflow", "model_config": {"class_name": "Sequential", "config": {"name": "sequential_16", "layers": [{"class_name": "InputLayer", "config": {"batch_input_shape": [null, 461], "dtype": "float32", "sparse": false, "ragged": false, "name": "dense_80_input"}}, {"class_name": "Dense", "config": {"name": "dense_80", "trainable": true, "batch_input_shape": [null, 461], "dtype": "float32", "units": 8, "activation": "tanh", "use_bias": true, "kernel_initializer": {"class_name": "GlorotUniform", "config": {"seed": null}}, "bias_initializer": {"class_name": "Zeros", "config": {}}, "kernel_regularizer": null, "bias_regularizer": null, "activity_regularizer": null, "kernel_constraint": null, "bias_constraint": null}}, {"class_name": "Dense", "config": {"name": "dense_81", "trainable": true, "dtype": "float32", "units": 12, "activation": "tanh", "use_bias": true, "kernel_initializer": {"class_name": "GlorotUniform", "config": {"seed": null}}, "bias_initializer": {"class_name": "Zeros", "config": {}}, "kernel_regularizer": null, "bias_regularizer": null, "activity_regularizer": null, "kernel_constraint": null, "bias_constraint": null}}, {"class_name": "Dense", "config": {"name": "dense_82", "trainable": true, "dtype": "float32", "units": 12, "activation": "tanh", "use_bias": true, "kernel_initializer": {"class_name": "GlorotUniform", "config": {"seed": null}}, "bias_initializer": {"class_name": "Zeros", "config": {}}, "kernel_regularizer": null, "bias_regularizer": null, "activity_regularizer": null, "kernel_constraint": null, "bias_constraint": null}}, {"class_name": "Dense", "config": {"name": "dense_83", "trainable": true, "dtype": "float32", "units": 12, "activation": "tanh", "use_bias": true, "kernel_initializer": {"class_name": "GlorotUniform", "config": {"seed": null}}, "bias_initializer": {"class_name": "Zeros", "config": {}}, "kernel_regularizer": null, "bias_regularizer": null, "activity_regularizer": null, "kernel_constraint": null, "bias_constraint": null}}, {"class_name": "Dense", "config": {"name": "dense_84", "trainable": true, "dtype": "float32", "units": 30, "activation": "softmax", "use_bias": true, "kernel_initializer": {"class_name": "GlorotUniform", "config": {"seed": null}}, "bias_initializer": {"class_name": "Zeros", "config": {}}, "kernel_regularizer": null, "bias_regularizer": null, "activity_regularizer": null, "kernel_constraint": null, "bias_constraint": null}}]}}, "training_config": {"loss": "categorical_crossentropy", "metrics": [[{"class_name": "MeanMetricWrapper", "config": {"name": "accuracy", "dtype": "float32", "fn": "categorical_accuracy"}}]], "weighted_metrics": null, "loss_weights": null, "optimizer_config": {"class_name": "Adagrad", "config": {"name": "Adagrad", "learning_rate": 0.0010000000474974513, "decay": 0.0, "initial_accumulator_value": 0.1, "epsilon": 1e-07}}}}, "weightsManifest": [{"paths": ["group1-shard1of1.bin"], "weights": [{"name": "dense_80/kernel", "shape": [461, 8], "dtype": "float32"}, {"name": "dense_80/bias", "shape": [8], "dtype": "float32"}, {"name": "dense_81/kernel", "shape": [8, 12], "dtype": "float32"}, {"name": "dense_81/bias", "shape": [12], "dtype": "float32"}, {"name": "dense_82/kernel", "shape": [12, 12], "dtype": "float32"}, {"name": "dense_82/bias", "shape": [12], "dtype": "float32"}, {"name": "dense_83/kernel", "shape": [12, 12], "dtype": "float32"}, {"name": "dense_83/bias", "shape": [12], "dtype": "float32"}, {"name": "dense_84/kernel", "shape": [12, 30], "dtype": "float32"}, {"name": "dense_84/bias", "shape": [30], "dtype": "float32"}]}]}